…
0,"elapsed":2651,"user":{"displayName":"Clear Clufe","photoUrl":"https://lh3.googleusercontent.com/a-/AOh14GjkJlxsgeAv38vnBG9Z3r6EVtVLTnQHBiKndyTZgQ=s64","userId":"07078249765596298478"}},"outputId":"a0492cdc-2588-45a1-85bd-cccd317dd759"},"source":["model.summary()"],"execution_count":22,"outputs":[{"output_type":"stream","text":["Model: \"sequential_1\"\n","_________________________________________________________________\n","Layer (type)                 Output Shape              Param #   \n","=================================================================\n","conv2d_4 (Conv2D)            (None, 28, 28, 32)        320       \n","_________________________________________________________________\n","max_pooling2d_2 (MaxPooling2 (None, 14, 14, 32)        0         \n","_________________________________________________________________\n","conv2d_5 (Conv2D)            (None, 14, 14, 64)        18496     \n","_________________________________________________________________\n","max_pooling2d_3 (MaxPooling2 (None, 7, 7, 64)          0         \n","_________________________________________________________________\n","flatten_1 (Flatten)          (None, 3136)              0         \n","_________________________________________________________________\n","dense_2 (Dense)              (None, 100)               313700    \n","_________________________________________________________________\n","dropout_1 (Dropout)          (None, 100)               0         \n","_________________________________________________________________\n","dense_3 (Dense)              (None, 10)                1010      \n","=================================================================\n","Total params: 333,526\n","Trainable params: 333,526\n","Non-trainable params: 0\n","_________________________________________________________________\n"],"name":"stdout"}]},{"cell_type":"code","metadata":{"colab":{"base_uri":"https://localhost:8080/","height":856},"id":"IzrqfikKZQC3","executionInfo":{"status":"ok","ti
…
